Код/savedModels/CartPole_VanillaDQN_64neurons.pth (torch, 4096 bytes, 4 tensors)

fc1.weight f4 [64, 4]
0.56164163 1.3383468 0.02989331 0.10521926 0.41891116 0.0585364 0.3787623 0.36203912
-0.04155468 0.4478933 0.03232899 0.25692827 0.16552995 -0.18889342 -0.4742186 0.4970791
0.038492266 -0.7447623 -0.51286066 0.19549054 0.59941286 -0.33723828 -0.34223136 -0.31246263
0.32685456 -0.4888971 -0.6085316 -0.14042914 0.45310283 0.20234245 -0.4785564 -0.09976725
0.57333016 -0.12271882 -0.57011473 0.30279994 -0.11614038 0.5021605 0.90294296 -0.2852853
-0.040870704 -0.18011501 -0.24485262 -0.19086085 -0.21668229 0.44465548 0.40894127 0.24644472
-0.093447015 -1.4145678 -7.420388 -1.6265072 -0.09603802 -0.1323898 -0.4805693 -0.30880097
-0.21066807 0.01508724 0.06462453 -0.249878 0.6441752 -0.364038 0.31136462 -0.2786821
0.182697 -0.35761455 -0.27484763 0.0027433403 1.8273373 1.531261 4.7119727 1.9158391
0.15122959 -0.038887672 1.0934201 0.5095644 1.1416261 0.3492694 -6.7041693 -0.9582666
-0.25142485 -0.30282202 1.1010056 -0.5492387 0.5753149 1.7976208 6.675012 1.8052801
0.06682771 0.27135637 0.31333503 0.29015216 -0.17831278 -0.4084506 -0.6515762 0.24862885
-0.027081853 0.8008612 1.4025124 -0.09380417 0.28398934 0.24423419 0.2798171 -0.2045719
-0.20174716 -0.13402808 0.66097385 -0.18145947 -0.68317175 -2.011759 -9.575187 -2.1773982
0.6568341 1.5886781 6.9693384 2.9114664 0.032114185 0.051423628 -0.3096618 -0.16680408
-0.10040669 -0.12159248 0.1502356 -0.12332512 0.26366776 -0.16462496 1.6800139 -0.1237437
0.3564982 0.11636012 0.15354761 0.3819386 -0.12073692 0.12245031 -0.37517175 -0.20987901
0.10618316 -0.0081310645 0.05080841 0.4276087 -0.043428574 -0.17961751 0.5745482 -0.05227766
0.17518705 0.370171 1.2743295 0.43957493 -0.124427326 -0.017688131 0.74706846 -0.19553092
-0.13066348 0.105503164 0.0047209016 -0.078351215 0.15783288 0.34599897 0.6341142 -0.14220671
1.5311537 0.13823362 -5.8673215 -0.9714546 0.51422286 -0.10115038 0.3195549 0.25560293
-1.690314 -1.4606751 2.1067984 0.22241537 -0.23925167 0.6030043 1.6739383 0.34967965
0.041820124 -0.29525918 -0.65427953 -0.24680103 -0.021762373 -2.316076 -5.5379477 -3.2874868
0.17534266 0.11403245 0.7036009 -0.11928067 0.15957059 0.6064408 0.3032879 -0.04033932
0.03217402 0.5599779 0.31917015 0.14063203 -0.061483987 0.034983404 -0.14773802 -0.044446565
-0.1529062 -0.29187092 -0.18277006 -0.03846657 0.30629376 0.40071863 3.2358224 0.9228862
0.21101421 -0.48654267 -0.17096704 0.18167046 -0.09766321 0.13975438 1.0475553 -0.11476541
0.06971439 -0.08902858 0.1566496 -0.19415775 1.4364746 1.7543123 -1.4989012 -0.17338328
0.48919842 -1.959889 -4.2378664 -2.7319086 0.052401695 -0.30630994 -0.44236428 0.3570458
-0.17073913 -0.14547844 -0.28603342 -0.019296696 -0.21719195 0.3667377 -0.4718883 0.56212085
-0.032009717 0.09980894 0.46644315 -0.3317641 -0.066075265 0.018597221 0.6831786 -0.35834622
-0.04843796 -0.019203233 0.522456 -0.09913062 -0.30097893 -0.22631301 -0.21915126 0.2938786
00000000: bfc7 0f3f f34e ab3f d1e2 f43c 327d d73d
00000010: 867b d63e ddc3 6f3d 22ed c13e 315d b93e
00000020: 3d35 2abd 4552 e53e 676b 043d 1a8c 833e
00000030: af80 293e 476d 41be c8cc f2be 2781 fe3e
00000040: 11aa 1d3d bea8 3ebf d64a 03bf ac2e 483e
00000050: 1f73 193f 7faa acbe f338 afbe 1afb 9fbe
00000060: 7b59 a73e b850 fabe bac8 1bbf a8cc 0fbe
00000070: 18fd e73e dc32 4f3e 5805 f5be c652 ccbd
00000080: c4c5 123f 0154 fbbd 0af3 11bf 9808 9b3e
00000090: 02db edbd 978d 003f 4527 673f ea10 92be
000000a0: 0a68 27bd 1270 38be a5ba 7abe 0771 43be
000000b0: f6e1 5dbe e2a9 e33e c060 d13e 015c 7c3e
000000c0: 2661 bfbd 8f10 b5bf d273 edc0 6331 d0bf
000000d0: 95af c4bd 3191 07be 2e0d f6be 291b 9ebe
000000e0: 5fb9 57be 7930 773c de59 843d 05e0 7fbe
000000f0: aae8 243f 3063 babe 2f6b 9f3e 6caf 8ebe
00000100: ec14 3b3e 4119 b7be d4b8 8cbe 9dc9 333b
00000110: 30e6 e93f 5c00 c43f 7bc8 9640 373a f53f
00000120: eedb 1a3e ae48 1fbd 31f5 8b3f d072 023f
00000130: ce20 923f 70d3 b23e 8e88 d6c0 f650 75bf
00000140: c2ba 80be 7d0b 9bbe c0ed 8c3f e89a 0cbf
00000150: d647 133f 7018 e63f b399 d540 6b13 e73f
00000160: f7dc 883d 39ef 8a3e 736d a03e d38e 943e
00000170: a097 36be 7020 d1be b3cd 26bf 9098 7e3e
00000180: c3da ddbc 3d05 4d3f 8785 b33f 671c c0bd
00000190: 0d67 913e 8718 7a3e 3044 8f3e 4c7b 51be
000001a0: cf96 4ebe a83e 09be 9535 293f 83d0 39be
000001b0: 58e4 2ebf a9c0 00c0 f733 19c1 7e5a 0bc0
000001c0: 4826 283f ce59 cb3f d204 df40 7755 3a40
000001d0: 2a8a 033d 95a1 523d fe8b 9ebe b0ce 2abe
000001e0: 06a2 cdbd 7a05 f9bd 5cd7 193e e191 fcbd
000001f0: 76ff 863e 7293 28be b20a d73f 566d fdbd
00000200: ef86 b63e 374e ee3d 963b 1d3e 758d c33e
00000210: eb44 f7bd 3ac7 fa3d 8316 c0be 86ea 56be
00000220: 8e76 d93d 2838 05bc 7b1c 503d 87ef da3e
00000230: 29e2 31bd a7ed 37be 9715 133f 1a21 56bd
00000240: 3c64 333e 0e87 bd3e 3b1d a33f f70f e13e
00000250: c1d3 febd b3e6 90bc e13f 3f3f 4239 48be
00000260: a6cc 05be 0b12 d83d cbb1 9a3b 9a76 a0bd
00000270: f19e 213e c726 b13e 4f55 223f a39e 11be
00000280: d8fc c33f 1d8d 0d3e 19c1 bbc0 40b1 78bf
00000290: 1ca4 033f ee27 cfbd b39c a33e 63de 823e
000002a0: 365c d8bf 67f7 babf c9d5 0640 dbc0 633e
000002b0: 64fe 74be 7d5e 1a3f 9c43 d63f 3609 b33e
000002c0: 944b 2b3d 362c 97be dd7e 27bf 69b9 7cbe
000002d0: 0147 b2bc 973a 14c0 de36 b1c0 2f66 52c0
000002e0: 078d 333e d889 e93d 301f 343f 6d49 f4bd
000002f0: 7966 233e b43f 1b3f 8d48 9b3e d83a 25bd
00000300: e8c8 033d b65a 0f3f 456a a33e d801 103e
00000310: a2d6 7bbd c24a 0f3d a348 17be 9a0d 36bd
00000320: 7193 1cbe 1b70 95be 1328 3bbe 1f8f 1dbd
00000330: 89d2 9c3e fe2a cd3e b717 4f40 4542 6c3f
00000340: 1c14 583e 1f1c f9be fc11 2fbe d207 3a3e
00000350: a603 c8bd c61b 0f3e 4b16 863f 210a ebbd
00000360: 6bc6 8e3d 9e54 b6bd c168 203e 4ad1 46be
00000370: 66de b73f 4e8d e03f ffdb bfbf 638b 31be
00000380: 3778 fa3e a5dd fabf 9a9c 87c0 97d7 2ec0
00000390: 29a3 563d a8d4 9cbe 927d e2be b5ce b63e
000003a0: 3dd6 2ebe 4df8 14be f972 92be 1b14 9ebc
000003b0: 9167 5ebe 0bc5 bb3e 589b f1be 27e7 0f3f
000003c0: 9f1c 03bd a168 cc3d a3d1 ee3e fcdc a9be
000003d0: 7852 87bd 3359 983c cbe4 2e3f 2879 b7be
000003e0: e266 46bd 1950 9dbc adbf 053f ff04 cbbd
000003f0: e919 9abe 99be 67be 3069 60be 4177 963e

fc1.bias f4 [64]
-0.015260454 2.6811616 2.8117151 2.6055555 1.5247583 2.793714 2.5103042 3.0111313
2.4948053 2.347841 2.5726526 -0.76948136 -0.31739026 2.9057477 2.2583272 2.7843635
-0.87823343 0.3076148 1.7457932 0.24174 -1.0314662 0.69777226 2.103531 2.4188795
2.0218172 2.5904655 -0.8048866 -0.68154246 -1.2982802 -0.6024037 -0.6900926 1.7017534
2.633745 2.6005533 2.2241585 2.1275482 1.9279114 -0.9607394 2.6601164 2.2358682
0.7108367 2.756075 -0.9404901 1.5763401 2.6287332 -1.113594 2.1043932 2.5031335
2.4983332 -0.589983 2.6070008 1.5418923 1.985193 -0.5923962 -0.423828 -0.36438382
-1.839833 2.4977772 2.3667822 -0.026675463 2.673456 2.2158127 2.1158926 2.665003
00000000: fc06 7abc 2798 2b40 24f3 3340 6cc1 2640
00000010: 482b c33f 36cc 3240 d3a8 2040 60b6 4040
00000020: e4aa 1f40 0743 1640 57a6 2440 bbfc 44bf
00000030: fa80 a2be c5f7 3940 6f88 1040 0333 3240
00000040: e8d3 60bf b07f 9d3e 2776 df3f b18a 773e
00000050: 1607 84bf 34a1 323f 40a0 0640 ecce 1a40
00000060: 7465 0140 30ca 2540 0c0d 4ebf 9179 2ebf
00000070: 0c2e a6bf 2137 1abf e9a9 30bf 0ed3 d93f
00000080: 478f 2840 776f 2640 9d58 0e40 c029 0840
00000090: cdc5 f63f 04f3 75bf 593f 2a40 7718 0f40
000000a0: 65f9 353f 8863 3040 f6c3 70bf 83c5 c93f
000000b0: 2a3d 2840 408a 8ebf 61ae 0640 5733 2040
000000c0: b1e4 1f40 2009 17bf 1ad9 2640 ba5c c53f
000000d0: ce1a fe3f 47a7 17bf fcff d8be 8490 babe
000000e0: a67f ebbf 95db 1f40 5c79 1740 8086 dabc
000000f0: e719 2b40 e0cf 0d40 c96a 0740 698f 2a40

fc2.weight f4 [2, 64]
-1.4043645 1.603594 1.2049857 1.2763114 0.937633 1.655385 1.488614 1.554511
1.3984333 0.84104526 1.3991106 -0.019129748 -1.4008255 1.4460602 1.3595135 1.8317364
-0.076066606 -3.9628165 1.0156884 -0.568028 -0.10746883 -4.3338842 0.9855853 1.3812699
0.6089681 1.3212254 -0.09874248 -1.0783669 -3.22494 0.005505457 -0.11674307 0.78318334
1.4498714 1.1545589 1.0741702 1.0604237 0.9703966 -0.2230217 1.2675732 0.94221425
0.4139959 1.6206774 -3.4703608 0.42919242 1.3573747 -3.2475674 0.8775295 1.0157272
1.2064505 0.56986886 1.511828 -0.06251426 1.2157035 -0.05688808 -0.045698658 -1.2447499
-3.45429 1.2288574 1.3473021 0.06359172 1.1940733 1.1114757 0.98033553 1.405195
0.24261694 1.6034081 1.3297994 1.0029947 0.39196765 1.6504483 1.1911119 1.7128737
1.5099528 1.2662034 1.2237288 0.29734775 -5.9054456 1.3417883 1.176317 1.8343331
0.050354023 -1.391442 0.9072099 -4.1967854 0.23350386 -0.10441157 1.0444628 0.8840585
1.2030894 1.5353464 0.2391551 -5.066596 -3.7998476 -0.09592858 0.2181072 0.8738585
1.4156262 1.1049505 0.9521104 0.9099169 1.2109295 -0.17165315 1.228626 1.2741268
-2.7091851 1.5943584 -2.1919644 0.860462 1.0880744 -3.6334033 1.0284365 1.4765949
1.461625 -0.03337258 1.2223197 0.91298884 0.85150707 -0.052596107 -0.04578995 -0.43129382
-1.8319763 0.89852506 1.0595927 0.04462466 1.269053 1.2057155 0.9367173 1.032734
00000000: 37c2 b3bf 9142 cd3f f93c 9a3f 2c5e a33f
00000010: b708 703f a8e3 d33f e78a be3f 37fa c63f
00000020: ddff b23f be4e 573f 0e16 b33f fdb5 9cbc
00000030: 404e b3bf 8018 b93f 8a04 ae3f 5776 ea3f
00000040: cfc8 9bbd c99e 7dc0 1402 823f 486a 11bf
00000050: 9e18 dcbd 2eaf 8ac0 514f 7c3f 74cd b03f
00000060: 55e5 1b3f ea1d a93f 7f39 cabd ed07 8abf
00000070: 6b65 4ec0 1f67 b43b fe16 efbd b47e 483f
00000080: 6395 b93f 96c8 933f 697e 893f f7bb 873f
00000090: e96b 783f cd5f 64be d73f a23f f434 713f
000000a0: 45f7 d33e 5b72 cf3f 641a 5ec0 1cbf db3e
000000b0: 74be ad3f 25d8 4fc0 c6a5 603f 5903 823f
000000c0: f86c 9a3f ede2 113f 9483 c13f 7a07 80bd
000000d0: 2c9c 9b3f 7a03 69bd 842e 3bbd f753 9fbf
000000e0: 1613 5dc0 334b 9d3f 6574 ac3f 603c 823d
000000f0: 65d7 983f d644 8e3f 45f7 7a3f 6edd b33f
00000100: 9370 783e 7a3c cd3f de36 aa3f 2162 803f
00000110: fcaf c83e e441 d33f 5b76 983f 723f db3f
00000120: 2246 c13f f412 a23f 25a3 9c3f f73d 983e
00000130: 69f9 bcc0 b8bf ab3f 8e91 963f 6dcb ea3f
00000140: 0540 4e3d c51a b2bf e83e 683f 114c 86c0
00000150: a31b 6f3e bcd5 d5bd f5b0 853f a851 623f
00000160: d5fe 993f 3b86 c43f 13e5 743e 8e21 a2c0
00000170: b430 73c0 3476 c4bd 7e57 5f3e 31b5 5f3f
00000180: 3d33 b53f 056f 8d3f 82bd 733f 50f0 683f
00000190: bdff 9a3f d8c5 2fbe 9e43 9d3f 9616 a33f
000001a0: 4a63 2dc0 f013 cc3f 2549 0cc0 3d47 5c3f
000001b0: 0646 8b3f ae89 68c0 cfa3 833f 1001 bd3f
000001c0: 8716 bb3f b0b1 08bd f974 9c3f a3b9 693f
000001d0: 5efc 593f 046f 57bd 3e8e 3bbd 8bd2 dcbe
000001e0: 337e eabf bd05 663f bca0 873f 59c8 363d
000001f0: 5470 a23f e354 9a3f b4cc 6f3f a130 843f

fc2.bias f4 [2]
1.5967442 1.599914
00000000: 1d62 cc3f fbc9 cc3f
