Код/savedModels/LunarLander_VanillaDQN_128neurons.pth (torch, 8992 bytes, 4 tensors)

fc1.weight f4 [128, 8]
00000000: 7822 9f3e eb60 c5c0 078e 813f 3d78 d13f
00000010: fa50 e73d be4f 0d3f 2da2 353f da4e 353f
00000020: d21f 17be 1d9a c4be 459d c73f c65b 9bbf
00000030: b0ec 9940 493d 48c0 68ee b03e 287b 8d3e
00000040: 9d91 eabf 4dd4 37c0 dfca 1cc0 25a4 26c0
00000050: ac27 d83f 4cf2 3b3f caac 133f 9150 6c3e
00000060: 23b9 8bbe d9af 1b3e 2e49 e4bf 4cd2 253f
00000070: b817 33bf be38 48c0 bf24 75bf 6c99 a23e
00000080: 5a0e 82bf 92eb 943e 9ead b0bc 3be7 ac3f
00000090: 9419 4dbf c212 9b3f 83b8 a4bf f2eb 98be
000000a0: 43a5 3d3f 9fb5 36bf 9554 8d3f 16f0 8a3e
000000b0: be38 ce3e de72 3840 38f7 8f3f 1e0c 85be
000000c0: 51b3 82c0 f4c4 6dc0 200f 17bf d17c c3be
000000d0: 51aa 4240 4bba 1b40 3c20 763e d92c ce3e
000000e0: 6b4d 853d d683 283f 9b63 97bf 52b2 b2bf
000000f0: 277e ef3f 018d 7640 1562 013f da9a f8bf
00000100: bbd9 b83f 919d 4c3f d2b2 a3c0 6687 31bf
00000110: ecee 9cc0 4ac0 bc3f 3b97 84bf 9b1c dabf
00000120: 88d9 e23d cc17 8cc0 8655 3c3f 11b4 b33d
00000130: 51e3 c73d 7a96 503e 9134 563f 1276 2d3f
00000140: 89f5 243e 07e9 e8bd 114b fb3f 0118 da40
00000150: 58af 2940 fe19 8ebf 6018 a83f 24b9 cb3f
00000160: 5395 623f 356b 3c40 26d9 dc3f 46dd 39c0
00000170: d2a1 d540 1562 19c0 57a8 08be 4dbe 79bf
00000180: c4bb 2e3f 2d7f d23e 7381 7f3f 9be7 113f
00000190: b2a6 6a3e 6b0d c43f ee2f 93bd 9fa2 d0bf
000001a0: 7b5e 2e40 7a67 77be fcd7 9b3f 3da7 4a3e
000001b0: 38b7 19c0 a288 5ac0 623c 1ec0 f845 b8be
000001c0: cc28 debf dee8 3a40 67a7 56bf 5e3a 8240
000001d0: 2173 5740 2df0 4a3e 78d3 cdbd 8308 87be
000001e0: 3b5a ac40 98da d7be a16a 2140 ccaa 403f
000001f0: 53f6 3bc0 2229 4e3e 43ca 353f 6c65 e63d
00000200: f16b 4abf 9cb8 2840 380a 94bf dbc1 6dc0
00000210: 7ffd e53f 2775 29c0 3f43 6b3f 4c07 0cc0
00000220: 7922 d9be 79f9 d43f 6d8b d73f 94ad 7440
00000230: aebb c83e e749 a93f b267 6d3e 9c5e d0bf
00000240: 010b 4bbf 773d 44bf 955d f0bf 77d7 a23f
00000250: a690 42be 8008 40c0 75e1 943f 799c ef3e
00000260: 5b60 243f 7a2e e13d 056f c3be 3d08 f43f
00000270: 1d3a 743e 227f 3bbf 2ae0 87bf f9a5 9abe
00000280: 6e8e 48c0 6fbe a13f 1e1b 003f 78d7 e23d
00000290: 7bc7 ca3f 2fc2 6840 29f8 83bf ca6b 39c0
000002a0: caf4 21be 334f c83f 30b7 fabd 0160 3cc0
000002b0: 51e2 373f a794 babe 0cbd 2ac0 f81c 903f
000002c0: 71e8 d0bf 2c52 91c0 be9b 5ebf 47e0 38c0
000002d0: b7c7 993f 730d fe3e 4dba 9b3d 0827 4e3e
000002e0: 220e 3f3f 75d0 50c0 7ac6 68bf 8294 c4be
000002f0: 68ff d3bf 92c0 58bf adf3 463b de57 d6be
00000300: e60e 2240 9d31 1ec0 f17e 3340 5321 6ec0
00000310: eba2 7cbf 8ebd f63e cf31 953e e221 be3e
00000320: 16fe f3bd 892b 61bf c42a 1540 111d 8ec0
00000330: 0307 8040 17f2 94bf f130 33c0 33e6 b63c
00000340: ec13 33be 0a6c c93f 37dd b83f cdcd b2be
00000350: a97e 45be 6e64 4740 9ac0 2d3f 998c babf
00000360: e9c8 6b3f b588 98bf 580b 12bf ed67 0dc0
00000370: 6b0a c9bf 1fb3 a23e 14e3 893f 90f6 02be
00000380: e0de 5740 9651 62bf 8587 9e3f 1032 0e3f
00000390: d2a3 06c0 054d a7be 4a6f 893f 0847 6c3f
000003a0: bc20 72bf fa42 c13f ce07 633e 7e49 0cc0
000003b0: b43a be3f e138 64bf 1e5a ce3f 00d6 11c0
000003c0: 5067 1abe 24ad 2b40 fd57 89bf 39f7 48c0
000003d0: 5eaa 9c3f a82b 27c0 ee49 953e a25a 29c0
000003e0: 6996 91bf bebd 2f40 a3fd 303f ec7f b7bf
000003f0: f8da 823f c608 ebbf b6c7 94be 31e2 38bf
0.31080985 -6.168081 1.0121468 1.6364819 0.11294742 0.551998 0.70950586 0.7082344
-0.14758232 -0.3839883 1.559487 -1.2137382 4.8101425 -3.1287405 0.3455689 0.27633023
-1.8325688 -2.8723328 -2.4498823 -2.6037686 1.6887107 0.7341659 0.5768553 0.23077609
-0.27289686 0.152038 -1.7834833 0.6477401 -0.69958067 -3.1284633 -0.95759195 0.31757677
-1.016063 0.29085976 -0.021567162 1.3508066 -0.80117154 1.21151 -1.2868809 -0.29867512
0.74080294 -0.7137088 1.1041437 0.27136296 0.40277666 2.882011 1.124732 -0.25985807
-4.084389 -3.715146 -0.59007454 -0.38181165 3.0416453 2.4332454 0.24035734 0.4026859
0.06508907 0.65826166 -1.1827272 -1.3960669 1.8710374 3.8523562 0.50540286 -1.9422257
1.4441446 0.7992793 -5.1155787 -0.69347227 -4.9041653 1.4746182 -1.0358652 -1.703998
0.11076647 -4.377905 0.73568 0.08774579 0.09760154 0.20369902 0.8367396 0.67758286
0.16109289 -0.113725714 1.9632283 6.81543 2.6513271 -1.1101682 1.3132439 1.5915875
0.885091 2.9440434 1.7253768 -2.9041305 6.6760035 -2.3966115 -0.13345467 -0.97556
0.6825526 0.41112652 0.998069 0.56994027 0.22915152 1.5316595 -0.07186876 -1.6299628
2.7245166 -0.24160567 1.2175288 0.19790359 -2.4018078 -3.4145894 -2.4724355 -0.35990882
-1.73562 2.920463 -0.83849186 4.069625 3.366402 0.19818182 -0.100501 -0.2637368
5.3860145 -0.4215896 2.522133 0.75260615 -2.9369094 0.20132878 0.7101175 0.112498134
-0.79070956 2.6362677 -1.1565619 -3.714957 1.7967986 -2.6477754 0.91899484 -2.1879454
-0.42409113 1.6638633 1.6839424 3.8230944 0.39205688 1.3225678 0.23184088 -1.6278872
-0.79313666 -0.7665629 -1.8778559 1.2722005 -0.19000491 -3.0005188 1.1631304 0.46799067
0.64209527 0.10995193 -0.3817064 1.9065014 0.23850293 -0.73240864 -1.0615284 -0.30204752
-3.1336932 1.2636241 0.5004138 0.11076254 1.5842127 3.636852 -1.0310107 -2.897204
-0.15816036 1.564917 -0.122419715 -2.9433596 0.71829706 -0.36441538 -2.6677885 1.125884
-1.6320935 -4.5412807 -0.86956394 -2.8886888 1.2014073 0.49619636 0.076038934 0.20132077
0.7463094 -3.2627232 -0.9092785 -0.38394552 -1.6562319 -0.8466884 0.0030357644 -0.41863912
2.5321593 -2.4717782 2.804623 -3.720784 -0.98686093 0.48191494 0.29139563 0.37135226
-0.119136974 -0.87957054 2.3307352 -4.441048 4.000856 -1.163638 -2.7998621 0.022326564
-0.17488068 1.5736096 1.444251 -0.3492264 -0.19286598 3.1155047 0.6787201 -1.4574157
0.9210344 -1.191672 -0.5704856 -2.2094681 -1.5706304 0.31777284 1.0772424 -0.12789369
3.3729782 -0.8840574 1.2385107 0.5554514 -2.1037488 -0.3267595 1.0737088 0.92295885
-0.945812 1.5098565 0.22170946 -2.1919856 1.4861665 -0.8914929 1.6121252 -2.2786865
-0.15078473 2.6824427 -1.0729977 -3.1400893 1.2239492 -2.6120396 0.29157966 -2.6461568
-1.1374027 2.745956 0.6913702 -1.4335914 1.0223074 -1.8362052 -0.29058617 -0.7222014

fc1.bias f4 [128]
00000000: e47c c33f dfc2 b4be ded0 aabf b9c6 83bf
00000010: 97be 05c0 3efa 93bf 5c24 8bbf 558c e3bf
00000020: 0bc7 c8be 0ec9 de3f 4b71 a13f 3fb0 8fbf
00000030: d55a 1ec0 1697 a43b eb23 753e 09b3 3abf
00000040: cb79 23bd ec41 d5bf 2391 51bf a95b acbf
00000050: 616d a7bf 6dc5 563e c78d 26bf c1e4 8cbf
00000060: 8b04 2ebf fdaa 123f f9bb 0bc0 e3ff 1abf
00000070: 8367 40be a156 b23f debd 493e 1271 fc3f
00000080: 470d f7bf ab06 8abf facc dcbf e433 cfbe
00000090: 529f 14c0 3bc6 9e3e c2e7 2ebf 93dc 983e
000000a0: 7354 30be e3c3 0d3f d064 93bf 6645 18c0
000000b0: e6cb d9be 9633 123f fd10 01c0 17b4 50be
000000c0: 909b 50be 9dcd 1d40 a19b b5bf aac3 0dc0
000000d0: eed1 f1bf 2cd5 503d f7c4 81bf 15c0 9abf
000000e0: a99e d9bf 674a dbbf 5419 ecbf aff5 5bbe
000000f0: 8684 26bf 8cb8 cabe 13ab 14bf 1f14 9d3e
00000100: 83f2 bcbe 06f6 1c3e cfd4 72bf d5ce ecbf
00000110: dec1 7ebf 6263 bebe ed32 dabe 412b 723f
00000120: 9a05 6e3f d38f 02bf af07 efbf f3a1 5ebe
00000130: 7995 73bf 2333 ba3b c8ae 03c0 f4f2 85bf
00000140: 6839 97be 6309 04be 487f 793f b979 c8bf
00000150: ca87 cbbf 88a2 903f 0bd7 243e ddee 183f
00000160: 3a2f 9ebf 6071 aebe 4011 20bf 5134 4dbf
00000170: cab7 43be 1c82 0040 826a fd3f a51c b2bf
00000180: 6bc2 483f 6be3 13bf 7397 32bf 13c8 05bf
00000190: 1b7f c7be 6189 dabf 32cf d3be 2d83 84bf
000001a0: eefe fbbf 0729 02c0 0f3f 90be 55f0 b83f
000001b0: d390 c53e 99e6 07c0 9771 1bc0 7af5 193e
000001c0: 14dc 313f 7718 26bf a14a 0ec0 5711 72be
000001d0: 0760 0cc0 5cf4 64bf a331 be3e e425 12bf
000001e0: a0ed cbbf 5097 0fbf b970 793f ed19 04c0
000001f0: 1da4 353f 0bd8 03c0 1adf 0cc0 05e3 dcbe
1.5272489 -0.35304925 -1.3344991 -1.029502 -2.0897577 -1.1560743 -1.0870471 -1.7777201
-0.39214358 1.7405107 1.2612699 -1.1225661 -2.474294 0.0050228937 0.23939483 -0.72929436
-0.039911073 -1.6660743 -0.81862086 -1.3465472 -1.3080255 0.2097375 -0.65060085 -1.100731
-0.6797568 0.5729216 -2.183348 -0.605467 -0.18789487 1.3932687 0.19701335 1.9722006
-1.9300927 -1.0783285 -1.7250054 -0.40469277 -2.3222241 0.31010613 -0.68322384 0.29855785
-0.17219715 0.55377024 -1.151514 -2.3792357 -0.42538375 0.57109964 -2.016662 -0.20381199
-0.20371842 2.4656746 -1.4188119 -2.2150674 -1.889219 0.050984547 -1.0138234 -1.2089869
-1.7001544 -1.7132081 -1.844523 -0.2148044 -0.65045965 -0.39593923 -0.5807354 0.30679414
-0.36903772 0.15328225 -0.9485597 -1.850062 -0.9951457 -0.37185198 -0.42616978 0.9459725
0.929773 -0.5100071 -1.867422 -0.21741466 -0.9514995 0.0056823655 -2.0575428 -1.0464768
-0.29535985 -0.12894206 0.9745984 -1.5662147 -1.5900815 1.1299601 0.16097657 0.59739476
-1.2358162 -0.34070873 -0.6252632 -0.80157954 -0.19113079 2.0079412 1.9798129 -1.3914992
0.7842166 -0.5776889 -0.69762343 -0.52258414 -0.3896416 -1.7073175 -0.41369015 -1.0352532
-1.9687173 -2.033754 -0.2817311 1.4448344 0.38587055 -2.1234496 -2.428808 0.15035048
0.6947644 -0.6488108 -2.223305 -0.23639427 -2.193361 -0.8943536 0.37147245 -0.57089067
-1.5931892 -0.5609026 0.97437626 -2.0640824 0.7095354 -2.0600612 -2.201117 -0.43141952

fc2.weight f4 [4, 128]
00000000: 31c1 1f40 075a 67bf 308a 55c0 3e7f bbbe
00000010: a822 4f3f e1b7 d63f 78ed 11c0 8e50 2fc0
00000020: ac35 2440 ee76 4440 9bc5 1940 da31 3a3f
00000030: e262 a2bf 6964 dcbf 87ba 1fc0 1ce8 2dc0
00000040: 3125 dc3f 7b36 aa3f c77c 8dbd f431 093e
00000050: 1d55 17c0 2022 353f aac9 15c0 2119 8b3f
00000060: c143 d4bf 4fbf de3f 2949 90bf 04b2 973d
00000070: cd6a 54c0 d277 b13f 9ca3 b33f 574a 8d3f
00000080: fbaa 30be bc68 c23d 9669 273e eb2e 1ac0
00000090: feca debf d594 eabf 2fef 76bc 5c0d 853e
000000a0: 4c73 1a3f a0fd 0ac0 0199 4bc0 1ee1 81bf
000000b0: d87e ba3e 301b 9bbe 6a21 83bf 6dd7 febf
000000c0: 9a71 823f ef4d 8940 ba84 a5bf 3e4d b8bf
000000d0: dc64 12be eca8 8440 0664 26c0 067e 5b3e
000000e0: 4f1a ab3d bb8d d0bf d838 f23d bfb9 e33e
000000f0: df1d 1dc0 8bf4 b7bf 6ed0 33bc b800 64bf
00000100: 51ee babd e86a e13f 7a8a 81bf ee38 ecbe
00000110: 1a58 1c40 1cfe 9c3d a5ee e2bf 100b 733f
00000120: 563b f23f 9b4b 0ebd 8917 80be ff31 053f
00000130: ac35 e2bf 373b 99be 2e2b 19c0 c9d2 6b3d
00000140: a49b 283f 0778 163f db19 4940 d55a 01c0
00000150: 5013 c93e 936b 3240 6f88 1c3f 6bc7 3cc0
00000160: 36f0 db3f a14a 3b40 8181 583d d664 19c0
00000170: f93b 51c0 ad96 8e3f 87ff 4d40 82d9 babf
00000180: 33e9 a6be 9322 ad3f 5feb d63f 3687 3dc0
00000190: f4ec 8f3f afc8 68bf 2883 2ec0 cd85 acbf
000001a0: 46be bbbf 5436 2abe b2b3 e33f 1d2d 533f
000001b0: 53b3 4440 d2f8 41c0 26b5 75bf 9b70 743f
000001c0: 7978 6b3f 881a debf f84e 3fbf bd91 6d40
000001d0: af32 f0bf e760 8bbf e80b 1040 89a1 82bd
000001e0: c717 153f 8b4e 32c0 e440 b93e e8cf 98bf
000001f0: a715 fe3f ded8 1cbe 3983 1ec0 7efd 693f
00000200: 379d 2b40 3528 6e3f f12f 52bf 9ef3 d1bf
00000210: 049b e3be 5200 b9be e415 6dbf dddb 4bc0
00000220: b493 2540 3cea f43f 1f8b 1a40 c6d3 fb3c
00000230: 266d c4bf 7ba5 39bf 5b76 5fc0 4491 5cbf
00000240: a2a0 a43f 7319 41bf 4d75 853e 8bdd 25bc
00000250: b705 82c0 6bb6 b83e c005 40bf 47f8 0d3f
00000260: aad2 bdbf 0acc 1f3f b808 49c0 e0d5 2ac0
00000270: ce6e 18c0 1be4 c93f 5417 cf3f e3be bd3f
00000280: 0782 52bf 8889 d6bd df74 943c 7597 8dbf
00000290: fa1d a0bf 1be2 1ebe b540 9d3d 1297 2340
000002a0: 3255 a53f 8f38 60c0 6d0f 34c0 8eda cbbf
000002b0: ba95 513e 367c c3be e40a d2bf eff4 0ec0
000002c0: bf52 8dbd fbb5 5a40 6c60 b8bf a451 b4be
000002d0: 84c5 863d 4675 8640 536f 34c0 3f9d a6be
000002e0: 584c ad3f f3cc e9bf 2bec a5bd afe3 c83e
000002f0: 27af a3bf d2de d2bf cab1 96bf c94f 6dbf
00000300: 1d68 803d 3333 8b3f 7bee 2740 1f37 e8bf
00000310: ef07 e13f 2a8a 7cbd d43d a0bf 9a64 833f
00000320: c316 2f40 da41 fe3c f2ef b1be cd84 553f
00000330: 5092 9cbf 9a1e ba3f 1884 20bf 20dc eabe
00000340: 6066 9d3f 42b1 093f 811d d13f c9f9 8fbf
00000350: c1e4 943e 9dd5 4f40 9283 053f 651d 54bf
00000360: f47a 0d3c 2a74 4740 00af 5fbf f443 c9bf
00000370: fb16 0ec0 4c9f a73f 6db8 1440 0ccf a1be
00000380: a51d 533f 223a 8b3f b03e 443f 41bf 7fbf
00000390: da60 c2be 6a99 893e cfda 3ebf 8426 f0bf
000003a0: 83c2 bdbe b1cd 21c0 4776 f93f 976c cf3f
000003b0: 426c 0d40 3074 9dbf 5a68 6dbf 3716 a3be
000003c0: 5638 b33f d306 a73f ef14 60be e58f a23f
000003d0: 4a13 67be 1535 9bbf 816a 0840 9635 53be
000003e0: 1907 103f f6e4 45c0 6654 c83f c8b7 cebf
000003f0: a193 2640 4727 26bf beac 73c0 41f0 453f
2.4961665 -0.90371746 -3.3365593 -0.36620516 0.80912256 1.6774865 -2.280119 -2.7392917
2.5657759 3.069759 2.4026859 0.7273232 -1.2686427 -1.7218143 -2.4957597 -2.7172918
1.719885 1.3297876 -0.06908565 0.13397962 -2.36457 0.70755196 -2.3404336 1.0867044
-1.6583177 1.7402133 -1.1272327 0.07407001 -3.3190186 1.3864691 1.4034305 1.1038312
-0.17252724 0.09492633 0.16348872 -2.4091136 -1.7405698 -1.832667 -0.015071674 0.25986755
0.6033218 -2.17173 -3.1812136 -1.0146825 0.364249 -0.3029418 -1.0244572 -1.9909493
1.0190918 4.2907634 -1.293113 -1.4398572 -0.14296287 4.1456203 -2.599855 0.21434793
0.08354627 -1.6293253 0.11827248 0.4447765 -2.4549482 -1.4371504 -0.0109749865 -0.89063597
-0.091274865 1.761075 -1.0120385 -0.46137184 2.4428773 0.07665655 -1.7729079 0.94938755
1.8924358 -0.03474007 -0.25017956 0.52029413 -1.7672629 -0.2992799 -2.3932605 0.057574067
0.6586249 0.587769 3.142203 -2.021169 0.39272547 2.7878158 0.6114568 -2.9496715
1.7182682 2.92643 0.05285788 -2.3967795 -3.2692854 1.1139733 3.2187212 -1.4597628
-0.32599792 1.3526176 1.679058 -2.9613776 1.1244187 -0.9093122 -2.7267551 -1.3478333
-1.4667442 -0.16622287 1.7789214 0.8249071 3.073445 -3.0308118 -0.95979536 0.9548432
0.919807 -1.7351847 -0.7472987 3.7120202 -1.8765467 -1.0888947 2.2507267 -0.06378467
0.58239406 -2.786044 0.3618232 -1.1938448 1.9850358 -0.15317103 -2.4767592 0.91402423
2.6814706 0.930301 -0.821044 -1.6402471 -0.44454205 -0.36133057 -0.9261153 -3.1852944
2.58714 1.9133983 2.4147413 0.03074063 -1.534581 -0.7251813 -3.4915988 -0.8615916
1.2861521 -0.7542946 0.26066056 -0.010123621 -4.0631976 0.36076674 -0.75008774 0.55456966
-1.4829915 0.62420714 -3.1411572 -2.669304 -2.381763 1.5772737 1.6178994 1.4823879
-0.82229656 -0.10475451 0.018122135 -1.1061846 -1.2509148 -0.1551594 0.076783575 2.5560956
1.2916625 -3.503452 -2.8134415 -1.5926073 0.20467272 -0.38180703 -1.6409574 -2.2336996
-0.06900548 3.4173572 -1.4404426 -0.35218537 0.06580642 4.2018156 -2.8192947 -0.32541844
1.3538923 -1.826567 -0.08101686 0.3923621 -1.2787827 -1.6474249 -1.1773007 -0.9269987
0.06269858 1.0875 2.6239307 -1.8141822 1.7580546 -0.0616552 -1.2518868 1.0265076
2.7357643 0.03103726 -0.34753376 0.8340576 -1.2232151 1.4540589 -0.6270156 -0.45871067
1.2296867 0.537861 1.6337129 -1.1248103 0.29080775 3.247413 0.52153885 -0.8285735
0.008635271 3.116465 -0.87376404 -1.5723863 -2.2201526 1.3095489 2.3237565 -0.31603277
0.8246711 1.0877116 0.76658154 -0.99901205 -0.37964517 0.26874858 -0.74552625 -1.8761754
-0.37062463 -2.5281794 1.948922 1.6205014 2.2097325 -1.2301083 -0.9273735 -0.31852886
1.4001567 1.3048958 -0.21882986 1.2700163 -0.22565952 -1.2125574 2.1315005 -0.2062591
0.5626083 -3.0920997 1.5650756 -1.6149836 2.6027606 -0.6490368 -3.8074183 0.77319723

fc2.bias f4 [4]
00000000: 821b 4140 6b26 bb3e 2e74 f13f fcbc f43f
3.017304 0.36552748 1.886358 1.9120173
